…
2018-10-13 11:20:28.704162: I tensorflow/core/common_runtime/gpu/gpu_device.cc:1084] Created TensorFlow device (/job:localhost/replica:0/task:0/device:GPU:0 with 11360 MB memory) -> physical GPU (device: 0, name: TITAN Xp, pci bus id: 0000:0c:00.0, compute capability: 6.1)
Training set (172254, 48, 48) (172254,)
Validation set (3589, 48, 48) (3589,)
Test set (3589, 48, 48) (3589,)
_________________________________________________________________
Layer (type)                 Output Shape              Param #   
=================================================================
reshape (Reshape)            (None, 1, 48, 48)         0         
_________________________________________________________________
conv2d (Conv2D)              (None, 64, 48, 48)        1664      
_________________________________________________________________
batch_normalization (BatchNo (None, 64, 48, 48)        256       
_________________________________________________________________
conv2d_1 (Conv2D)            (None, 64, 48, 48)        36928     
_________________________________________________________________
batch_normalization_1 (Batch (None, 64, 48, 48)        256       
_________________________________________________________________
max_pooling2d (MaxPooling2D) (None, 64, 24, 24)        0         
_________________________________________________________________
dropout (Dropout)            (None, 64, 24, 24)        0         
_________________________________________________________________
conv2d_2 (Conv2D)            (None, 128, 24, 24)       73856     
_________________________________________________________________
batch_normalization_2 (Batch (None, 128, 24, 24)       512       
_________________________________________________________________
conv2d_3 (Conv2D)            (None, 128, 24, 24)       147584    
_________________________________________________________________
batch_normalization_3 (Batch (None, 128, 24, 24)       512       
_________________________________________________________________
max_pooling2d_1 (MaxPooling2 (None, 128, 12, 12)       0         
_________________________________________________________________
dropout_1 (Dropout)          (None, 128, 12, 12)       0         
_________________________________________________________________
conv2d_4 (Conv2D)            (None, 256, 12, 12)       295168    
_________________________________________________________________
batch_normalization_4 (Batch (None, 256, 12, 12)       1024      
_________________________________________________________________
conv2d_5 (Conv2D)            (None, 256, 12, 12)       590080    
_________________________________________________________________
batch_normalization_5 (Batch (None, 256, 12, 12)       1024      
_________________________________________________________________
conv2d_6 (Conv2D)            (None, 256, 12, 12)       590080    
_________________________________________________________________
batch_normalization_6 (Batch (None, 256, 12, 12)       1024      
_________________________________________________________________
max_pooling2d_2 (MaxPooling2 (None, 256, 6, 6)         0         
_________________________________________________________________
dropout_2 (Dropout)          (None, 256, 6, 6)         0         
_________________________________________________________________
conv2d_7 (Conv2D)            (None, 512, 6, 6)         1180160   
_________________________________________________________________
batch_normalization_7 (Batch (None, 512, 6, 6)         2048      
_________________________________________________________________
conv2d_8 (Conv2D)            (None, 512, 6, 6)         2359808   
_________________________________________________________________
batch_normalization_8 (Batch (None, 512, 6, 6)         2048      
_________________________________________________________________
conv2d_9 (Conv2D)            (None, 512, 6, 6)         2359808   
_________________________________________________________________
batch_normalization_9 (Batch (None, 512, 6, 6)         2048      
_________________________________________________________________
max_pooling2d_3 (MaxPooling2 (None, 512, 3, 3)         0         
_________________________________________________________________
dropout_3 (Dropout)          (None, 512, 3, 3)         0         
_________________________________________________________________
flatten (Flatten)            (None, 4608)              0         
_________________________________________________________________
dense (Dense)                (None, 1024)              4719616   
_________________________________________________________________
dropout_4 (Dropout)          (None, 1024)              0         
_________________________________________________________________
dense_1 (Dense)              (None, 1024)              1049600   
_________________________________________________________________
dropout_5 (Dropout)          (None, 1024)              0         
_________________________________________________________________
dense_2 (Dense)              (None, 7)                 7175      
=================================================================
Total params: 13,422,279
Trainable params: 13,416,903
Non-trainable params: 5,376
_________________________________________________________________
Train on 172254 samples, validate on 3589 samples
Epoch 1/400
   512/172254 [..............................] - ETA: 44:03 - loss: 30.7229 - acc: 0.1113
…
